{"class_name": "Model", "config": {"name": "model_17", "layers": [{"name": "input_17", "class_name": "InputLayer", "config": {"batch_input_shape": [null, 120, 120, 1], "dtype": "float32", "sparse": false, "name": "input_17"}, "inbound_nodes": []}, {"name": "gaussian_noise_17", "class_name": "GaussianNoise", "config": {"name": "gaussian_noise_17", "trainable": true, "stddev": 0.5}, "inbound_nodes": [[["input_17", 0, 0, {}]]]}, {"name": "conv2d_79", "class_name": "Conv2D", "config": {"name": "conv2d_79", "trainable": true, "filters": 64, "kernel_size": [7, 7], "strides": [1, 1], "padding": "same", "data_format": "channels_last", "dilation_rate": [1, 1], "activation": "relu", "use_bias": true, "kernel_initializer": {"class_name": "VarianceScaling", "config": {"scale": 2.0, "mode": "fan_in", "distribution": "normal", "seed": null}}, "bias_initializer": {"class_name": "Zeros", "config": {}}, "kernel_regularizer": null, "bias_regularizer": null, "activity_regularizer": null, "kernel_constraint": null, "bias_constraint": null}, "inbound_nodes": [[["gaussian_noise_17", 0, 0, {}]]]}, {"name": "conv2d_80", "class_name": "Conv2D", "config": {"name": "conv2d_80", "trainable": true, "filters": 64, "kernel_size": [7, 7], "strides": [1, 1], "padding": "same", "data_format": "channels_last", "dilation_rate": [1, 1], "activation": "relu", "use_bias": true, "kernel_initializer": {"class_name": "VarianceScaling", "config": {"scale": 2.0, "mode": "fan_in", "distribution": "normal", "seed": null}}, "bias_initializer": {"class_name": "Zeros", "config": {}}, "kernel_regularizer": null, "bias_regularizer": null, "activity_regularizer": null, "kernel_constraint": null, "bias_constraint": null}, "inbound_nodes": [[["conv2d_79", 0, 0, {}]]]}, {"name": "batch_normalization_53", "class_name": "BatchNormalization", "config": {"name": "batch_normalization_53", "trainable": true, "axis": -1, "momentum": 0.99, "epsilon": 0.001, "center": true, "scale": true, "beta_initializer": {"class_name": "Zeros", "config": {}}, "gamma_initializer": {"class_name": "Ones", "config": {}}, "moving_mean_initializer": {"class_name": "Zeros", "config": {}}, "moving_variance_initializer": {"class_name": "Ones", "config": {}}, "beta_regularizer": null, "gamma_regularizer": null, "beta_constraint": null, "gamma_constraint": null}, "inbound_nodes": [[["conv2d_80", 0, 0, {}]]]}, {"name": "dropout_53", "class_name": "Dropout", "config": {"name": "dropout_53", "trainable": true, "rate": 0.2, "noise_shape": null, "seed": null}, "inbound_nodes": [[["batch_normalization_53", 0, 0, {}]]]}, {"name": "conv2d_transpose_53", "class_name": "Conv2DTranspose", "config": {"name": "conv2d_transpose_53", "trainable": true, "filters": 64, "kernel_size": [7, 7], "strides": [1, 1], "padding": "same", "data_format": "channels_last", "activation": "relu", "use_bias": true, "kernel_initializer": {"class_name": "VarianceScaling", "config": {"scale": 2.0, "mode": "fan_in", "distribution": "normal", "seed": null}}, "bias_initializer": {"class_name": "Zeros", "config": {}}, "kernel_regularizer": null, "bias_regularizer": null, "activity_regularizer": null, "kernel_constraint": null, "bias_constraint": null}, "inbound_nodes": [[["dropout_53", 0, 0, {}]]]}, {"name": "conv2d_transpose_54", "class_name": "Conv2DTranspose", "config": {"name": "conv2d_transpose_54", "trainable": true, "filters": 64, "kernel_size": [7, 7], "strides": [1, 1], "padding": "same", "data_format": "channels_last", "activation": "relu", "use_bias": true, "kernel_initializer": {"class_name": "VarianceScaling", "config": {"scale": 2.0, "mode": "fan_in", "distribution": "normal", "seed": null}}, "bias_initializer": {"class_name": "Zeros", "config": {}}, "kernel_regularizer": null, "bias_regularizer": null, "activity_regularizer": null, "kernel_constraint": null, "bias_constraint": null}, "inbound_nodes": [[["conv2d_transpose_53", 0, 0, {}]]]}, {"name": "batch_normalization_54", "class_name": "BatchNormalization", "config": {"name": "batch_normalization_54", "trainable": true, "axis": -1, "momentum": 0.99, "epsilon": 0.001, "center": true, "scale": true, "beta_initializer": {"class_name": "Zeros", "config": {}}, "gamma_initializer": {"class_name": "Ones", "config": {}}, "moving_mean_initializer": {"class_name": "Zeros", "config": {}}, "moving_variance_initializer": {"class_name": "Ones", "config": {}}, "beta_regularizer": null, "gamma_regularizer": null, "beta_constraint": null, "gamma_constraint": null}, "inbound_nodes": [[["conv2d_transpose_54", 0, 0, {}]]]}, {"name": "dropout_54", "class_name": "Dropout", "config": {"name": "dropout_54", "trainable": true, "rate": 0.2, "noise_shape": null, "seed": null}, "inbound_nodes": [[["batch_normalization_54", 0, 0, {}]]]}, {"name": "conv2d_81", "class_name": "Conv2D", "config": {"name": "conv2d_81", "trainable": true, "filters": 1, "kernel_size": [7, 7], "strides": [1, 1], "padding": "same", "data_format": "channels_last", "dilation_rate": [1, 1], "activation": "relu", "use_bias": true, "kernel_initializer": {"class_name": "VarianceScaling", "config": {"scale": 2.0, "mode": "fan_in", "distribution": "normal", "seed": null}}, "bias_initializer": {"class_name": "Zeros", "config": {}}, "kernel_regularizer": null, "bias_regularizer": null, "activity_regularizer": null, "kernel_constraint": null, "bias_constraint": null}, "inbound_nodes": [[["dropout_54", 0, 0, {}]]]}], "input_layers": [["input_17", 0, 0]], "output_layers": [["conv2d_81", 0, 0]]}, "keras_version": "2.2.0", "backend": "tensorflow"}